src_python/my_module.pt (torch, 2642 bytes, 1 tensors)

weight f4 [10, 20]
00000000: 04c1 443f b96c 073f 55c9 7f3f a2a5 dc3e
00000010: b399 173f 70bd 0c3e b157 343f 0c2a 133e
00000020: 4727 033f 9eb3 6b3f 041f 053e 6aed 9d3e
00000030: f1ba 6b3f 840c 7e3f 0bb9 183f 09c6 693f
00000040: 8c12 653e 9877 773e be88 743f 3601 563f
00000050: 4479 aa3e 4ff3 483f 7a50 813e bfda 313f
00000060: 7e68 2d3f 03fb 1c3f ca42 343f a266 dd3e
00000070: ef35 413f fc49 eb3e e9b3 193f 8834 463e
00000080: c47d d43e f0bd 443e c121 5b3f 0d72 723f
00000090: d2e6 db3e 3043 ab3e 78e2 8f3e 456e 613f
000000a0: ef0f 093f 1306 043f f36f 7a3f 78a9 533e
000000b0: 409a 163f 0ea1 853e b558 713f f882 523e
000000c0: 9cd5 013f 15ee 073f bc85 163f c068 693d
000000d0: ec69 253f 3fad 0f3f f2b1 f83e e692 7a3f
000000e0: 2468 dc3e 001a 8a3d 5539 673f 0f07 5e3f
000000f0: 814e 293f b0a4 083d b803 8e3d 00ea 423b
00000100: 1843 4d3f da76 173f 6c44 b33e 54da 1c3f
00000110: cc0a f13e 6648 b03e 4a6b ba3e eab8 ee3e
00000120: 6acd 0f3f c33d 653f 8c72 703f b8d9 5d3e
00000130: 3408 0e3f 2ba7 093f 904d 8d3e 7c86 5c3f
00000140: 3672 dd3e 3f6c 003f c4dc 563e ba4f 193f
00000150: 04af 713e c4ea 453e 7cf3 703f 1890 e03e
00000160: 0c0f 2c3f 0c26 383f e076 223f b110 6d3f
00000170: 63c6 493f b9d5 363f 40f2 b63e 641d 593e
00000180: aaec 773f 0a22 4b3f 929c 513f 908b e33d
00000190: 80ec ae3d 4827 353e 79b6 203f 54f9 873e
000001a0: 5abb 163f 354f 5b3f da72 e23e 6f08 593f
000001b0: b06c ef3d 088d 753e e6c3 553f b202 e03e
000001c0: 20da 443e 100b 093e 5580 1a3f 84e2 4b3e
000001d0: 6cc9 e13e 1c88 953e b09d 583d 79eb 053f
000001e0: 8820 983d 2563 143f 6c51 763f f044 733e
000001f0: 80ad ae3b ae87 033f 68d8 823d b6fc f83e
00000200: 4ae0 6b3f 94a2 363f 2e7b 203f e05d 163f
00000210: cc5b 6a3e e4e3 5e3e 97fc 293f 1ebb 013f
00000220: 8393 7b3f c889 2c3f 8045 e73c 9c75 0a3f
00000230: f1d7 523f 8a3b 763f cc39 d43e e4de f33e
00000240: e4c3 4e3f fe9e 433f 848c 653f e824 1a3f
00000250: 08a8 ad3e d53a 543f 29fe 603f 99a3 163f
00000260: a692 1b3f a89a ee3e b502 3d3f d3e2 7b3f
00000270: 649e 6d3f d4f1 5d3f 345d 643f 4640 6e3f
00000280: c067 ad3e 6927 343f 1f4d 2d3f 3018 1a3d
00000290: 0dbf 163f ebcb 613f 7c57 da3e 2ac6 b63e
000002a0: cec4 d93e f437 553f a899 5a3f 11ab 593f
000002b0: 204f b03c e51b 7a3f 8cad 2f3f 179b 5a3f
000002c0: 0499 0c3f fc8d a53e 3095 053d 5d44 7c3f
000002d0: 40be 4c3e 1306 383f 6526 323f 3821 c93d
000002e0: 1e1b 803e ce30 583f bcda 313e 7ba1 523f
000002f0: 3019 113d 71dd 463f 17a5 4d3f 18d8 7a3e
00000300: 48d6 c63e df57 2f3f 180d 5c3f e9c2 513f
00000310: e05e 113e becf 403f 80cf 6e3e 647f 033e
0.7685702 0.5290027 0.99916583 0.43095118 0.592189 0.1374414 0.70446306 0.14371508
0.5123181 0.9207095 0.13000113 0.30845195 0.92082125 0.9923785 0.59657353 0.913178
0.22370356 0.24166715 0.9552115 0.835956 0.33295643 0.7849626 0.2525671 0.69474405
0.6773757 0.61320513 0.7041441 0.43242365 0.7547292 0.45954883 0.60040146 0.19355977
0.41502202 0.1921308 0.8559838 0.9470528 0.4294954 0.33449697 0.2810247 0.8805888
0.5353994 0.5157177 0.9782707 0.20670116 0.58829117 0.26099437 0.9427598 0.20557773
0.5071657 0.5309766 0.5879781 0.056984663 0.6461475 0.5612373 0.48573261 0.978804
0.43048203 0.0674324 0.90321857 0.8672952 0.6613541 0.033360183 0.06934303 0.0029741526
0.801805 0.5916573 0.3501314 0.6127064 0.4707855 0.34430236 0.3640998 0.46625453
0.5617281 0.89547366 0.93924785 0.21665084 0.55481267 0.53770703 0.27598238 0.86142707
0.432512 0.5016517 0.20982653 0.5988728 0.2360192 0.19327837 0.9412153 0.43859935
0.6721046 0.71933055 0.6346264 0.92603594 0.7881834 0.71419865 0.35731697 0.21202618
0.96845496 0.79348814 0.8187953 0.11110604 0.085412025 0.17690766 0.6277843 0.2655741
0.58879626 0.85667735 0.4422825 0.84778494 0.11690652 0.2397958 0.8350204 0.43752056
0.19223833 0.13383126 0.6035207 0.19910628 0.44098985 0.29205406 0.052884758 0.5231243
0.0742808 0.5796378 0.9621799 0.23756766 0.0053307414 0.51378906 0.063889325 0.48630303
0.9213911 0.71341825 0.6268796 0.5873699 0.2288658 0.21766621 0.66401047 0.50676143
0.9827196 0.6739774 0.028231382 0.5408571 0.8236075 0.961846 0.41450346 0.4763099
0.80767655 0.7641448 0.89667535 0.60212564 0.3391726 0.8290227 0.8788782 0.5884338
0.6077064 0.46602368 0.73832256 0.9839298 0.9281981 0.86697125 0.89204717 0.93066823
0.33868217 0.70372635 0.676958 0.037620723 0.5888527 0.8820178 0.4264487 0.35698062
0.42532963 0.832885 0.8539071 0.8502665 0.021522105 0.97698814 0.68624187 0.853929
0.54920983 0.32334888 0.03261298 0.98541814 0.1999445 0.7188427 0.69589835 0.09820789
0.2502069 0.8444947 0.17368597 0.8227765 0.03542441 0.7768164 0.8033003 0.24496496
0.3883536 0.68493456 0.8595748 0.81938034 0.14196348 0.7531699 0.23321342 0.12841564
